cifar100_model_epoch_39.pth (torch, 461959 bytes, 10 tensors)

conv1.weight f4 [6, 3, 5, 5]
000000 1e 99 c8 be 1d 70 bc be 09 3b 0d bf 0c c5 04 bf
       -0.3917932 -0.36804286 -0.55168205 -0.5186317
000010 05 ca 24 bf 6f eb 21 be 46 a4 dd bd 30 5d 57 3c
       -0.6437076 -0.15812467 -0.10822348 0.013144776
000020 38 18 32 bd 20 c4 a7 be 49 b0 f7 3d 47 1b 74 3e
       -0.043480128 -0.3276682 0.120941706 0.2383853
000030 19 8b bf 3e 00 36 58 3e 14 79 0f 3d 8b 2d e0 3d
       0.3741081 0.2111435 0.03502758 0.10946187
000040 d9 ef c7 3e 5d 31 d1 3e c6 ce 7b 3e 49 75 e6 3d
       0.39050177 0.40857974 0.24590597 0.11252839
000050 2f c1 dc bd d1 32 98 3d 56 52 01 3e 9e cb 3f 3e
       -0.10779034 0.074315675 0.12629065 0.18730018
000060 4c c7 0f be f5 2b 0e 3c 0e 3a eb 3d 0c cc 98 3c
       -0.1404087 0.008677472 0.114856824 0.018651985
000070 d7 22 1e bd 3d 4f 78 be c3 cc d8 3e b7 3e d6 3e
       -0.038607445 -0.24248977 0.4234372 0.41844723
000080 ed 9e 1a 3f 5b 65 cf 3e d8 f7 37 3e 4d 89 e7 3e
       0.6039875 0.40507016 0.17965639 0.4522194
000090 8f 9b 2a 3f c3 f8 4e 3f 6a 44 1c 3f fd 5d 88 3e
       0.66643614 0.8084833 0.6104189 0.26634207
0000a0 70 ee ae 3e e3 47 02 3f aa 30 2e 3f 84 5d 1e 3f
       0.34166288 0.5089094 0.68043005 0.61861444
0000b0 61 b5 8b 3e bc 9b 7d bd 4e aa 5f 3e a4 a0 82 3e
       0.2728682 -0.061916098 0.2184231 0.25513184
0000c0 76 72 5b 3e ca 47 10 be d1 e3 66 3d ca e0 55 3e
       0.21430382 -0.14089885 0.056369606 0.20886531
0000d0 81 56 d6 3d 5c 5c ea 3d 46 0b b5 bd e8 43 c6 3e
       0.10465718 0.114433974 -0.08840041 0.38723683
0000e0 19 e6 12 3f d9 74 06 3f 8d a1 e6 3e 7d d3 ad 3d
       0.5738235 0.52522045 0.45045128 0.08487604
0000f0 8d f7 b6 3e 5a e3 09 3f 3e fb 31 3f ab a4 e9 3e
       0.3573574 0.53862536 0.6952399 0.45633444
000100 eb 18 6f 3e 58 6b 70 3e 8f 2e 14 3f b2 13 f1 3e
       0.23349349 0.23478448 0.5788354 0.4708534
000110 8c 81 a7 3e 30 14 ab 3c 2f fd 01 3e 43 e4 53 3e
       0.32716024 0.02088365 0.12694238 0.20692544
000120 ca 39 a2 3e ac 07 50 3c 3f 9c 7e be af 04 b9 bd
       0.31684715 0.012697142 -0.2486429 -0.090340964
000130 a9 12 9f bd cc 89 3f 3d 29 40 29 3d ae 79 c4 3d
       -0.07767231 0.046762273 0.041320954 0.09593521
000140 0d 43 74 bd 8c 37 a1 bd 17 f2 7a 3d c9 39 3f bd
       -0.059634257 -0.07871923 0.06126603 -0.046685968
000150 52 7a 8f 3d 97 7f e0 bc e5 45 87 3d 48 be b7 bd
       0.070057526 -0.02740459 0.06605128 -0.0897184
000160 31 b5 6e bd 22 0f 10 3d 93 00 c8 3c 61 57 f1 bc
       -0.058278266 0.03517068 0.024414336 -0.02946061
000170 c3 e2 8c 3d a1 bb a0 3d b9 88 ab bd 54 9d 7c bd
       0.06879189 0.078482874 -0.08375687 -0.061673477
000180 22 6c d8 3d 4d de 1f bd c7 cd 27 bd 72 d5 e4 bd
       0.105675 -0.039030362 -0.04096773 -0.11173524
000190 06 6d 87 bd 20 4d ec 3c 0f c6 79 bc 41 ac ab bd
       -0.066125914 0.02884537 -0.015244975 -0.08382464
0001a0 02 98 31 3b 8c 88 a1 bd cb a1 c8 bd 0c 39 82 bd
       0.002709866 -0.078873724 -0.097964846 -0.06358537
0001b0 f4 f9 ce bd 30 91 96 bd 36 63 ec 3d 8a a8 b2 3c
       -0.101062685 -0.07351911 0.115423605 0.021808881
0001c0 9a c0 11 3d 4f 90 dc bd 3b 53 9b bd ec 69 1d bd
       0.03558407 -0.10769712 -0.07584234 -0.038431093
0001d0 76 c4 93 3c 0f 27 d0 bd 04 d8 4b bd 90 94 8d bd
       0.018038016 -0.101637 -0.049766555 -0.06913102
0001e0 65 5b 9a 39 07 39 30 bd b8 32 04 bc 88 4f a0 bd
       0.00029441263 -0.043023136 -0.008068733 -0.078276694
0001f0 56 50 a2 bd 4c f7 89 bd de e4 21 bd ce aa ba bd
       -0.07925479 -0.06736621 -0.039524905 -0.0911461
000200 82 3e c6 3d 7b d7 bb bc 3a 7c cb 3d 4b 5f 13 3d
       0.09679891 -0.022929898 0.09935804 0.03597955
000210 e6 40 c8 bd d3 a3 a3 3d f4 2b 02 bd 8f 31 35 bd
       -0.097780034 0.07990231 -0.0317802 -0.044236716
000220 78 47 c4 bd b8 18 eb bd 24 56 07 3d ff b1 ce bc
       -0.09583944 -0.11479324 0.033041134 -0.02523136
000230 a7 63 38 3d eb 07 c2 bd b2 8d af 3d 04 94 ad bd
       0.04501691 -0.094741665 0.08571948 -0.08475497
000240 b8 40 a3 bc 00 ff c5 3c 14 3a 74 3d bd e4 be 3d
       -0.019928321 0.024169445 0.0596257 0.09320972
000250 dd 70 d7 3d 55 73 bb bd 5e 0f 32 be d4 54 a0 be
       0.10519574 -0.09152857 -0.17388675 -0.3131472
000260 ee 5e 30 be 9e e3 31 be 66 d1 f5 3d 4c f2 20 be
       -0.17223713 -0.17371985 0.1200283 -0.15717429
000270 13 f2 15 be 90 a9 50 be 53 08 25 be d5 0e d2 bd
       -0.14643125 -0.20377183 -0.16116457 -0.10256735
000280 0b 21 d1 3e 07 0c 89 3e 09 93 0e 3e 9f 1d 39 bd
       0.40845522 0.2676699 0.13923277 -0.045194265
000290 7f 64 26 3e a0 45 00 3e 29 50 20 3e a1 46 9f 3e
       0.16249274 0.1252656 0.15655579 0.31108573
0002a0 ba 94 3e 3e ae 5a e8 3c 31 a7 b4 be d7 25 78 be
       0.18611422 0.028363552 -0.35283807 -0.24233185
0002b0 73 7a 04 be 36 1e 58 be d2 a9 69 be 94 4e 55 be
       -0.12937336 -0.21105275 -0.22818688 -0.20830756
0002c0 95 dc 9b be 86 f3 6b bd 94 6c 82 3d 6f 81 44 bd
       -0.30441728 -0.05760529 0.06368366 -0.047975
0002d0 01 a4 b9 3c e4 fd 9e bd 1c 1c 1b be cd 81 2f be
       0.022661211 -0.077632695 -0.15147442 -0.17139359
0002e0 ad 86 95 3d 80 43 ea 3e 32 fb c2 3e ed 0d 44 3e
       0.07301078 0.45754623 0.38082272 0.19145937
0002f0 7f ca d3 3d e5 70 3e 3e 14 ae 5b 3e 4b 91 8b 3e
       0.103413574 0.18597753 0.21453124 0.27259287
000300 a4 c0 c1 3e 61 4f ad 3e d2 e9 10 3e af 48 71 be
       0.37842286 0.33849624 0.14151695 -0.23562883
000310 27 f9 13 be 56 d0 ef bd 14 4a 9e bd ee 07 84 bd
       -0.14450513 -0.11709659 -0.07728973 -0.06446825
000320 d3 1c 94 be 02 5a 87 be 24 1d 7d bc 84 cf 50 bc
       -0.2892824 -0.26435858 -0.015448842 -0.012744788
000330 b6 03 73 bb c9 cc fc bd 8b 6b 81 be dd 77 a4 be
       -0.003708107 -0.12343747 -0.2527736 -0.32122698
000340 44 8d 57 be b5 04 33 bc d6 41 cd 3e 00 b6 9c 3e
       -0.21049982 -0.010926415 0.4008929 0.30607605
000350 64 86 db 3c 17 95 0c 3b 47 83 b9 3d 2b 14 a0 3e
       0.02679748 0.002145117 0.09058242 0.31265387
000360 07 02 87 3e 70 02 53 3e be 51 72 3e 2e f7 89 3d
       0.26368734 0.20606399 0.23663995 0.06736599
000370 e7 ae 8c be 88 69 8c bd f7 31 35 be c4 65 0a be
       -0.2747719 -0.06856066 -0.17694841 -0.13515383
000380 65 18 5f be a1 0a b4 3d d6 23 c4 3d 3f 4a 4d 3d
       -0.2178665 0.0879109 0.09577148 0.050119635
000390 71 30 97 bd 0f 25 e0 bd 17 d8 b2 bd 67 43 bc 3d
       -0.07382286 -0.10944568 -0.08732622 0.091925435
0003a0 e0 1a 74 3d 0b 21 d1 3d 20 50 86 3d 3e 5e 26 3d
       0.059595942 0.102113806 0.065582514 0.04061722
0003b0 3f 72 ea 3b ef 68 ab bd 39 7f c3 bd 27 5f ce bd
       0.0071547325 -0.08369624 -0.0954575 -0.100767426
0003c0 5e 0d 80 3d 01 35 55 bd 9f 35 ac bc b5 af 7a bd
       0.062525496 -0.0520525 -0.021021662 -0.061202724
0003d0 eb 25 af bb 07 63 93 bd bd cc 95 bd 79 ed 3f 3d
       -0.0053450963 -0.07196622 -0.07314441 0.04685733
0003e0 c9 a7 93 bc 02 ef c4 3d 93 1e a7 bc 46 03 8c bd
       -0.018024342 0.096158996 -0.020400321 -0.06836562
0003f0 a7 41 9c bb 13 48 2e bd 1e 08 c6 bc 5f 23 ca bd
       -0.0047685686 -0.042549204 -0.024173792 -0.09870028

conv1.bias f4 [6]
000000 59 24 70 bf 7b 3c e9 bd e7 ec e5 3d 21 bb d6 3d
       -0.9380546 -0.11388489 0.11226826 0.10484911
000010 9c 56 83 be 37 1c f5 3e
       -0.25652015 0.4787309

conv2.weight f4 [16, 6, 5, 5]
000000 b3 41 19 3e 25 62 39 3e f6 af 71 bd 41 aa 2c be
       0.14966469 0.18103845 -0.0590057 -0.16861822
000010 d3 cb 54 3d 74 ae ff 3c b5 18 9e bd 0b 16 71 be
       0.051952194 0.031211115 -0.07719556 -0.23543565
000020 e9 3b de bd f5 84 7d bd 3f 91 1a be 99 e8 20 be
       -0.10851271 -0.061894376 -0.1509447 -0.15713729
000030 3f 0f d5 3c 3a 51 10 3e bd ba b4 3e 2b 04 00 bc
       0.026008246 0.14093485 0.3529872 -0.007813494
000040 62 ee c0 3d 33 d9 2e 3e 03 a6 3e 3e d5 5a 9d 3e
       0.09420468 0.17075042 0.18618016 0.30733362
000050 e8 83 41 3e 49 3b 2f 3e 42 e6 10 3e 1a be 75 3e
       0.18897974 0.17112459 0.14150336 0.23998299
000060 6f c0 67 3e 8a e5 01 bd 3f d6 44 bd 54 77 34 3c
       0.22632001 -0.031713046 -0.048055883 0.011014778
000070 14 20 45 bd a5 bc 59 bd 4c 58 2e 3d 28 ab 60 bc
       -0.048126295 -0.05315842 0.042564675 -0.013712682
000080 bd cd 98 3d d4 ab a2 3d bf 20 c8 3c 9f 32 e6 3c
       0.074611165 0.0794293 0.024429677 0.02810031
000090 36 06 9a 3c 78 0e a7 3a e0 ae c2 bb cb 07 93 3a
       0.01880179 0.0012745401 -0.005941257 0.0011217532
0000a0 ce c5 f9 3c 87 79 9b 3d 0b 57 ad bc 4f 5e 0d bd
       0.030489828 0.07591539 -0.02115967 -0.034513768
0000b0 6e fa a1 bc 41 93 21 bd 58 7b 63 3c fc a3 79 3d
       -0.019772734 -0.039447073 0.013884388 0.060947403
0000c0 ab c3 82 3d 5e 8e 19 3d a4 24 b7 bc 09 d6 e5 bc
       0.06384977 0.037489288 -0.022356339 -0.028056161
0000d0 67 c0 d7 bc b9 67 1e bd 18 60 8a bc f9 2b 27 bd
       -0.026336862 -0.038673136 -0.016891524 -0.04081342
0000e0 1b 45 22 3d 2a 20 71 bd 78 bd 1a bd b9 31 8c bd
       0.039616685 -0.058868565 -0.037778348 -0.06845421
0000f0 16 b4 d9 3d 7d a2 9c bd e3 46 30 3d a2 f7 08 3c
       0.10630052 -0.0764818 0.043036353 0.0083598215
000100 ee 9f 81 3c 46 29 a3 3d ba e4 8d 3c 68 77 9f 3d
       0.01582333 0.07966857 0.01732098 0.07786447
000110 c5 58 94 3d f7 57 9c bd 77 b2 ee 3d 88 79 82 3d
       0.07243494 -0.076339655 0.11655133 0.063708365
000120 ba dd bc 3c 00 6d ba bb 13 85 7d bc fd 05 2e bd
       0.023054946 -0.0056892633 -0.015473622 -0.04248618
000130 8e 75 48 bc de cf 9d 3d 41 2b 68 3d 19 aa 14 bb
       -0.0122350585 0.07705663 0.056681875 -0.0022684394
000140 b5 8a 9f bd b2 1b 66 3b 39 98 56 bd 26 47 8d 3d
       -0.07790128 0.0035111723 -0.052391265 0.06898336
000150 fc c5 41 bd ac ac bf bb cf 1f 7a bc b2 d2 90 3c
       -0.047307953 -0.0058494415 -0.015266373 0.017678592
000160 d0 6d 9f 3d dd 95 10 3c bc 09 49 3d 05 a1 81 3d
       0.07784617 0.008824793 0.04908155 0.0632954
000170 3b cd 86 3d d1 da e4 bc fd 4a 8d bc 75 bd 25 3d
       0.06582113 -0.027936371 -0.017247671 0.040463883
000180 d8 b7 b4 bc 8e 05 23 3d 6d 95 8b bc ba 66 61 bd
       -0.02206032 0.03980022 -0.017039025 -0.05502961
000190 95 df c7 bd a9 34 49 bd 54 13 2a 3c ea 7c 26 3d
       -0.09759442 -0.049122486 0.010380585 0.04064647
0001a0 ef e1 c2 bc 18 72 d3 bd 56 fa d4 bd b0 97 20 be
       -0.023789374 -0.10324496 -0.1039931 -0.15682864
0001b0 e5 26 db bd 48 37 0f be 30 ea 9b be 2b 02 7c be
       -0.10700778 -0.13985932 -0.30452108 -0.24610202
0001c0 91 4d 85 be 5d b1 3b be 9f 56 f5 bd b1 55 d0 be
       -0.2603574 -0.18329377 -0.11979412 -0.40690377
0001d0 35 b2 a6 be 9f ae 3d be 6c 8d 57 bd b5 82 19 be
       -0.32557836 -0.18523644 -0.052625105 -0.14991267
0001e0 ae be 80 be ea 19 00 be e4 be 69 be 87 1c 2e be
       -0.25145477 -0.12509885 -0.22826725 -0.1700307
0001f0 40 9b 4e bd 48 0d 61 3d 80 fa 81 3e a7 f3 9b 3e
       -0.050441027 0.054944307 0.2538643 0.3045933
000200 2a 26 81 3e b6 e9 a5 3e 58 f5 6c bd cc 45 0b 3d
       0.2522443 0.3240487 -0.057851166 0.03400211
000210 d6 f0 58 3d ef 8c c0 3d 94 42 77 3e 3f da 6e bd
       0.052964054 0.09401881 0.24146491 -0.058313604
000220 8c 84 3c be 50 b2 a4 bd e4 e4 80 bd 57 58 1d 3d
       -0.18409938 -0.08041823 -0.062936574 0.038414326
000230 32 cf 51 be c7 34 90 be ba 43 14 be f8 04 2f be
       -0.20489195 -0.28165266 -0.1447896 -0.17091739
000240 b0 d7 15 be aa f9 75 be d1 ac d6 be 94 c5 a4 be
       -0.1463306 -0.2402102 -0.41928723 -0.3218199
000250 34 5c 9f be 5d 8b 92 be 6f 8f af be ad 91 ab 3e
       -0.31125033 -0.2862195 -0.3428912 0.3350958
000260 a9 50 f8 3e ce 0d 8e 3d 2b c1 58 be 1a 57 1a bf
       0.4849904 0.06936227 -0.21167438 -0.60289156
000270 89 84 05 bf a1 e0 fa 3e c2 4e 08 3f dd 69 21 bd
       -0.5215536 0.48999503 0.53245175 -0.0394076
000280 6b a8 3e 3e 31 2a 85 bf e3 fa 98 be 77 d1 1b 3f
       0.18618934 -1.0403501 -0.2987891 0.60866493
000290 21 a3 a3 3e 24 ed 3e 3f 0e f0 e0 be e1 e1 74 bf
       0.31960395 0.745806 -0.43933147 -0.95657164
0002a0 c5 eb 82 be 08 bc 20 3e c8 12 f4 3e 07 97 d1 3e
       -0.25570503 0.15696728 0.4767058 0.40935537
0002b0 fa 20 11 be c7 a6 32 be a4 e8 39 be 34 38 23 bd
       -0.14172736 -0.17446433 -0.18155152 -0.03984852
0002c0 d7 64 00 3d 7b f5 84 3d a5 d3 b6 bc 6a 5d 09 bd
       0.03134617 0.06492134 -0.022317717 -0.033536352
0002d0 58 34 97 bd 7b 74 2c bd 49 6c 92 bd e6 15 99 bc
       -0.07383031 -0.042103272 -0.0714956 -0.0186872
0002e0 60 7f 88 3c 62 a8 9c bd 8c 00 92 3d a9 d2 51 3d
       0.0166623 -0.07649304 0.071290106 0.05122629
0002f0 94 b2 a3 bd 5b bc 1f bd 1a 2c da 3c 4a 63 89 bc
       -0.079930454 -0.03899799 0.026632357 -0.016770978
000300 cb a8 11 bc dc 00 17 bd 28 50 86 3d 80 f1 3a bd
       -0.008890341 -0.036866054 0.06558257 -0.04564047
000310 46 ad 8a 3d 32 b1 ac 3b ba 79 86 3c cf 73 82 3d
       0.067713305 0.0052701468 0.016415466 0.06369745
000320 dc aa bb bc f4 ae ed bc c1 f4 a6 3d 49 91 1d 3e
       -0.02290862 -0.029014088 0.08152152 0.15387453
000330 53 5c 53 bc 4a f5 48 3d 96 9b 8f bd 07 9b 09 3e
       -0.01290043 0.04906205 -0.070120975 0.13438044
000340 9f 12 42 3e 95 98 c7 3d 9d 3d fb 3d a1 38 0b 3d
       0.18952416 0.097458996 0.12267611 0.033989552
000350 98 c9 c3 3c cc fd 6e bc de b3 d8 3d 96 51 19 3e
       0.023899838 -0.014586877 0.10581182 0.14972529
000360 d6 ba 87 3e c9 04 18 3e 59 24 ce bc 17 65 09 3e
       0.26509732 0.14845575 -0.025163816 0.13417469
000370 48 eb 94 bd ae c3 ab 3d 41 d1 f8 3d 15 56 0f 3e
       -0.07271439 0.08386932 0.12149287 0.13997681
000380 f1 18 2b 3e 9f 3e 13 3c f0 98 4e bd b7 99 9a 3c
       0.16708733 0.008987098 -0.05043882 0.018872125
000390 a0 b6 02 bd 7f 69 93 3d 84 78 94 bd b6 68 d7 bc
       -0.031912446 0.07197856 -0.07249549 -0.026295047
0003a0 9d 47 a7 bd 94 81 17 bd 4c a1 c9 3c 44 d1 a7 3d
       -0.08167956 -0.03698881 0.024613045 0.08194211
0003b0 db 57 61 3c 3b af a3 3d 60 cb 4a 3c bd 7b 33 3d
       0.0137538565 0.07992407 0.01237759 0.043819178
0003c0 0d 4a 92 3d 31 80 8f 3d 0b 0a 3a bd 48 c7 9c 3d
       0.0714303 0.070068724 -0.045419734 0.076551974
0003d0 b2 24 56 3d 93 c1 09 bd e0 8c 15 bd 32 4a 81 bd
       0.05228109 -0.033631872 -0.036511302 -0.0631298
0003e0 ae e8 ec 3c 68 81 77 bd 3c 42 36 3b 3d a3 69 3d
       0.028919544 -0.060426146 0.0027810475 0.05704044
0003f0 aa 95 c7 3d 33 4e 46 3d 19 10 39 be ba 99 12 3e
       0.09745343 0.04841442 -0.18072547 0.14316455

conv2.bias f4 [16]
000000 a1 2a 06 3e c6 2d e8 bd 05 22 e2 be 6d 82 5b bb
       0.13102199 -0.113368556 -0.4416658 -0.0033494488
000010 d6 9c fc bd da 98 06 be 6b b5 fe 3e 81 3b 31 be
       -0.123346016 -0.13144246 0.49747786 -0.17307855
000020 54 19 bd bd 9a c9 85 3c db 8d 98 3d e9 6d 8c bd
       -0.092333466 0.016331483 0.07448932 -0.06856901
000030 3c 55 0b 3e 27 65 3c be 5e c4 94 3e 8c 3d 31 3e
       0.13606733 -0.18397962 0.29056066 0.17308635

linear1.weight f4 [200, 400]
000000 88 03 23 3d a0 83 ec 3c 7b 13 ca bc d5 de 32 3c
       0.03979829 0.028871357 -0.024667492 0.010917385
000010 4d 7e f5 bc 2b 6b 13 bb 08 79 9a bb eb 14 93 3c
       -0.029967451 -0.0022494297 -0.004714135 0.01795431
000020 53 84 1d bd 1d 58 76 bd 0f 05 e2 bc 98 58 8a ba
       -0.038456272 -0.060142625 -0.027590303 -0.0010554967
000030 5e 08 36 3a 32 2f 0a 3d 8c d2 2c 3d ce 22 85 bd
       0.0006943996 0.033736415 0.04219298 -0.06500779
000040 a0 fe b4 bc 93 be 48 bc 04 2a 8f bc 43 66 37 3c
       -0.02209407 -0.012252468 -0.01747609 0.011193815
000050 88 3b 7f bd 21 ce ee bc d2 72 aa 3c 76 ad 4c 3c
       -0.062312633 -0.029151024 0.020806704 0.012492528
000060 f8 18 81 3d 45 98 a1 3c b3 f5 b9 3c 7e 2f 83 3a
       0.063035905 0.019725928 0.022700166 0.0010008661
000070 9e 87 0d bd 82 86 50 3d e0 5f d2 bd 42 d4 86 bb
       -0.034553163 0.050909527 -0.10272193 -0.0041146586
000080 bf 92 9d 3b e3 30 4a 3d 55 92 66 3c 34 e6 5b 3d
       0.0048087533 0.04936303 0.014072974 0.053686336
000090 27 38 53 3d d0 3e c6 3c f6 35 49 3d 12 7a 34 3d
       0.051567223 0.024199873 0.049123727 0.044061728
0000a0 5d 55 82 3c 2e ed ab 3c 08 a8 31 3d 33 df 61 3d
       0.015909845 0.02098712 0.043373138 0.0551445
0000b0 81 97 a4 ba 8f 2e b3 bc 67 bc 4c 3c 14 48 ed 3c
       -0.0012557359 -0.021872787 0.0124960905 0.028965034
0000c0 36 d9 02 3e 9e aa 78 3d 99 14 c7 3c ac d0 57 3d
       0.12778172 0.06070959 0.024301814 0.05268924
0000d0 0f c9 2a bc 5e e8 a3 bc 24 a2 01 3c 33 f1 08 3d
       -0.010423913 -0.020008262 0.0079121925 0.03343315
0000e0 2f 2b 67 3d 31 95 6e 3d f8 6f 92 bc 76 b1 0b bd
       0.056437667 0.05824775 -0.017875656 -0.034104787
0000f0 23 f8 e0 bb ae e0 26 3d f3 01 65 bd 82 4d 4a bd
       -0.0068655177 0.040741615 -0.055910062 -0.049390323
000100 cc 27 09 3d 2b e6 1c 3d 52 99 03 bd 4e 5c 90 bc
       0.03348522 0.038305443 -0.03212864 -0.01762214
000110 76 83 56 3c 54 76 be 3d 23 c9 13 bd 54 7b 07 3d
       0.013092866 0.09299913 -0.03608049 0.0330766
000120 f9 cd 59 3d b0 b5 c3 3c 7a 4b 1c 3d b9 ba 60 bd
       0.053174946 0.023890346 0.038157918 -0.054865573
000130 af 33 26 bd f3 19 1a 3d 4a ec 1a 3d 24 d5 54 3c
       -0.040576633 0.037622403 0.037823 0.01299027
000140 3a 9b e7 bb 82 6f f9 3c 97 8f 42 bb b8 83 18 3d
       -0.007068065 0.030448679 -0.0029687637 0.03723499
000150 84 2d b0 bc 4c 70 96 bd 8c 7e 65 bb ef 63 7b bc
       -0.021506079 -0.07345638 -0.0035018055 -0.01534365
000160 2f a9 ba bd d3 b3 07 bd 47 9e a9 3d 87 9f 4f bc
       -0.091143005 -0.033130478 0.08282142 -0.012672312
000170 20 21 1d bd f3 3d dd bd 84 05 95 3c 51 62 c3 bc
       -0.03836167 -0.108028315 0.018191107 -0.023850592
000180 7b d7 3a bd bf 03 14 bd 36 36 72 3d 2b 60 fd bc
       -0.045615654 -0.036136385 0.05913373 -0.030929646
000190 9a 4d 0d bd 79 97 43 bd b5 b8 b3 bd f1 88 87 bd
       -0.034497835 -0.047751877 -0.087754644 -0.066179164
0001a0 b0 3d 1b bc 3c 4c 97 bc c8 3a 7a 3d 8d 4b 92 3d
       -0.009475157 -0.018468969 0.061091214 0.071433164
0001b0 de f4 2d 3d 64 45 a8 bd e3 9d 2d 3d f9 dc 59 3d
       0.04246985 -0.0821636 0.0423869 0.05318925
0001c0 13 1e 9e bd bb db 17 3c ca 56 9c 3c 07 6f 32 3d
       -0.0772058 0.009268696 0.019084353 0.043562915
0001d0 5f d5 f7 3c ab 2e a6 bd 5c f5 81 bd ac e5 e2 bc
       0.03025311 -0.0811437 -0.06345627 -0.027697407
0001e0 69 c1 04 bd 57 0a 77 bd 2f 3d e1 bc ba 3e cf bc
       -0.032411013 -0.060312595 -0.027494995 -0.025298465
0001f0 f4 94 b5 bb 59 37 15 3d c7 43 7c bc 74 ee d1 3c
       -0.0055414382 0.036429737 -0.015397019 0.025626399
000200 ea 96 3b 3d 9c ac b3 bc 1c 6e 28 3d bb 8b d8 bc
       0.04579822 -0.021932893 0.041120633 -0.026433816
000210 10 90 02 3d 28 d6 bd 3c 4a db 1c ba b5 aa dd 3d
       0.03187567 0.023173407 -0.00059836044 0.108235754
000220 4b 78 b8 bb c4 f9 c2 3b 6a ca c2 3c 55 5e 2f 3d
       -0.0056295744 0.0059501845 0.02377816 0.04281457
000230 06 1a 22 3d cd 50 ab 3d c0 f0 61 3c d8 dd 99 bd
       0.0395756 0.08365021 0.013790309 -0.075130165
000240 59 de 4c 3d 28 e4 51 3d fc 39 b6 3c 34 1b 43 bd
       0.050016735 0.051242977 0.022244446 -0.047633365
000250 98 f0 88 bc fb a9 f8 bc ac 73 3b 3c 5e 2e 95 bd
       -0.016716287 -0.03035449 0.011441153 -0.072842345
000260 1a a0 20 bd f1 3d f6 3b ff 89 03 bc f4 a6 b8 bc
       -0.039215185 0.007514708 -0.008028506 -0.022540547
000270 2a 86 49 bd bb 05 3a bd 9c 80 a0 bc b1 e4 67 bd
       -0.049200214 -0.04541562 -0.019592576 -0.05661458
000280 06 fc ef bc ee be 18 bd e2 3f e8 bc d1 d5 92 bd
       -0.029294979 -0.03729146 -0.028350774 -0.071696885
000290 05 63 5d bc ee 31 cc 3c e4 93 72 bc 23 59 22 bd
       -0.013512378 0.024926152 -0.014805768 -0.03963579
0002a0 3a 8e 19 bc 56 5b 80 3d b1 20 11 3c e5 8c 85 bc
       -0.009372288 0.06267421 0.008857892 -0.016302535
0002b0 85 b1 9c bd 37 e6 46 3d b8 cf 19 3e 6d bc 4c bd
       -0.07651047 0.048559394 0.15020645 -0.049984384
0002c0 ba 18 81 bd c9 e0 1c bd be d5 14 3d e6 bd 61 3d
       -0.06303544 -0.03830031 0.036336653 0.055112742
0002d0 18 2e 4b 3d 58 d6 c9 3b b6 53 d3 3c bc e9 82 3d
       0.049604505 0.006159585 0.025796752 0.063922375
0002e0 f2 0e e9 3c b2 e2 07 bd 9d dd 51 bd e4 d2 4d 3d
       0.02844951 -0.033175178 -0.051236738 0.05024995
0002f0 53 f5 c5 3c 18 1d 24 3d e3 f8 88 bd 75 17 23 3d
       0.024164831 0.04006681 -0.066880964 0.039817292
000300 3c 87 d7 3a 70 23 15 3c bd 53 da 3c 57 dc 20 bd
       0.0016443501 0.009102687 0.026651258 -0.039272632
000310 f8 c2 84 3d 46 c9 56 3d 23 5f f9 bb 5e 00 d5 3c
       0.064825 0.052438043 -0.007610218 0.026001152
000320 46 51 99 bd 52 d2 23 3c 05 36 d6 bc 32 98 ee bb
       -0.07486205 0.009998875 -0.026148805 -0.0072813267
000330 e5 19 0e 3d 3a e6 0f 3d d3 26 3b 3d 37 cd 13 3d
       0.034692664 0.03513167 0.045691323 0.03608438
000340 e3 31 5e 3b 30 a2 04 3d 9d 04 9d b9 07 01 8f bc
       0.0033904247 0.032381237 -0.0002994881 -0.017456545
000350 16 37 e8 bb f8 ab 42 3b 68 44 22 3d 2c 88 db 3d
       -0.007086645 0.0029704552 0.03961602 0.10719332
000360 30 74 46 3d 02 bd 21 3d 4c 9b 34 3d fa cb dd bc
       0.04845065 0.039486893 0.044093415 -0.027074803
000370 20 c0 ad bb ef 5d 5b 3d 00 2a 16 3d 12 ba 44 3d
       -0.005302444 0.05355638 0.036661148 0.048029013
000380 f3 06 1f bd d0 3c db bb 9e 0e 0f bd 87 b2 5e 3d
       -0.038824987 -0.006690599 -0.03492605 0.054369476
000390 6e 91 b3 3b 64 24 18 3d ab b1 94 bd 10 fb 27 3d
       0.005479983 0.03714408 -0.0726045 0.041010916
0003a0 f8 b2 0a 3d e3 b9 80 3d 07 52 e3 bc 2b 16 5a 3d
       0.033862084 0.06285455 -0.027749075 0.053243797
0003b0 fc 2b 82 bc 45 1c 95 bd a5 e1 98 bc 29 0a 9b 3b
       -0.015890114 -0.072807826 -0.018662283 0.004731436
0003c0 de e0 03 3c 65 4c 67 bc 77 f5 72 bd a8 22 a8 bd
       0.008049218 -0.014117335 -0.059316125 -0.08209735
0003d0 3d ec 5b bc 9c 24 e1 3c b4 c6 1a 3d 62 37 65 bd
       -0.013423023 0.027483277 0.037787154 -0.05596102
0003e0 f8 13 3c bd d7 22 8b 3c 08 d7 89 3d ef f9 7f 3d
       -0.04591748 0.016984386 0.06730467 0.062494215
0003f0 a2 99 04 3e a8 8d 3b 3d 6f e1 22 bc 34 cd 3e 3c
       0.12949231 0.04578939 -0.009941443 0.011645604

linear1.bias f4 [200]
000000 6e 63 89 bd 80 31 c3 3d 4f 03 39 3d af a7 67 bd
       -0.06708418 0.09530926 0.04516917 -0.0565564
000010 75 5b 99 3d 34 fe 1c bd cf fb 72 bd e4 56 28 3e
       0.07488147 -0.038328364 -0.059322175 0.16439396
000020 92 44 9c 3d 71 13 0b 3e 2e ae 89 3c 4b 3e 29 bd
       0.07630266 0.13581635 0.016806688 -0.041319173
000030 56 66 8c 3d 49 1b 8d bd 7a 92 48 bd 9a 6c 5c bd
       0.068554565 -0.0688997 -0.048967816 -0.053814508
000040 70 10 b6 bd c2 c2 55 3d 9d 2b 4d bd ba b7 b0 3b
       -0.08889854 0.05218769 -0.05009042 0.0053929957
000050 cc fc a5 bc dc fe 55 bd fe b3 96 3a 58 e2 0c 3d
       -0.020262145 -0.052245006 0.0011497734 0.034395546
000060 4e 4e e7 bb 0d 90 27 bd 8d 7c f0 3c 95 2b eb 3c
       -0.007058895 -0.040908862 0.029356265 0.028707305
000070 55 a5 d9 3d 5a fb 13 bd 03 85 ee 3c 88 6e b4 bd
       0.10627238 -0.03612838 0.02911616 -0.08810145
000080 ec 07 31 3d d4 48 64 bd 30 50 ad 3c 95 0a 22 3a
       0.043220446 -0.055733517 0.0211564 0.00061813864
000090 c9 7c 56 3d 02 29 c8 bc 5d c3 2d 3c d8 1c 19 3c
       0.0523651 -0.024433617 0.01060566 0.009345256
0000a0 dc 88 f5 bc 14 02 ff bb 92 62 cc bd ee e8 db 3b
       -0.029972486 -0.00778223 -0.09979738 0.006711117
0000b0 a4 e4 db 3c f7 b0 7b 3d 27 99 35 3a 10 74 43 3d
       0.026842423 0.061448064 0.00069274235 0.047718108
0000c0 b4 04 97 3d 17 59 13 bd ad 78 bf 3c a0 40 66 3b
       0.07373944 -0.035973635 0.023372972 0.0035133734
0000d0 f0 9d ab 3b bc c9 bb bd 73 0c 9b bd 61 f3 c1 3d
       0.0052373335 -0.09169337 -0.07570734 0.09470249
0000e0 1d 18 95 bd d5 58 00 be 29 b5 70 3d ad 2c 30 bd
       -0.0727999 -0.12533887 0.058766518 -0.043011356
0000f0 2f c4 5a bd 09 d9 13 3a c6 18 2b 3d ee f0 d0 3c
       -0.05340975 0.0005639946 0.041771673 0.02550551
000100 67 e1 11 bd c8 87 bf 3d a1 63 01 3d e7 08 1e 3e
       -0.03561535 0.0935207 0.031589154 0.15433083
000110 56 b4 d4 bc 6a 1a 88 bd d0 27 d2 bd 03 53 b9 bd
       -0.025964897 -0.06645663 -0.102615 -0.09049036
000120 22 d4 7f bd 28 0c f5 3c b3 57 97 bd 77 5e 45 3d
       -0.062458165 0.029913023 -0.07389774 0.04818579
000130 96 f2 be 3c bf 8f f7 bb 03 d6 0f bc 4e 7b 7c 3d
       0.023309033 -0.0075549777 -0.008779052 0.06164103
000140 89 86 06 bd f5 f4 a6 bd 7c 62 8f 3b c4 26 c6 bd
       -0.032843146 -0.081521906 0.004375754 -0.09675363
000150 10 74 c5 3d eb b4 e7 bd dc 34 a1 bc 3f a6 08 bd
       0.09641278 -0.11313804 -0.019678526 -0.03336167
000160 cf 85 37 bc 25 2a 31 3b 1e 93 02 3d 91 0c a1 bc
       -0.011201336 0.0027033177 0.031878583 -0.019659312
000170 50 ad b1 b9 63 92 06 3c 9e 93 e1 3d b4 ff 8b 3b
       -0.000338892 0.008213612 0.11014484 0.0042724255
000180 41 f0 cd 3c e1 24 d8 3d db b3 9c 3c 84 1c 04 3d
       0.025138976 0.10553909 0.01912873 0.032253757
000190 1f bc 53 bd 2f dd 47 bd 39 ce 00 bb fa 11 16 3e
       -0.051693078 -0.04879492 -0.0019654168 0.14655295
0001a0 fb ef 04 3d 83 ef 8d 3b f0 33 e2 3c 0a 19 2d 3d
       0.032455426 0.0043315305 0.027612656 0.042260207
0001b0 a7 52 52 3d ba 49 97 3d 47 40 a1 3a 9d 40 36 3c
       0.051348355 0.07387109 0.0012302481 0.011123803
0001c0 b2 63 9f 3d b6 c6 17 bd 8e f9 1d bd 0e 51 25 bd
       0.07782687 -0.03705474 -0.038568072 -0.040360503
0001d0 e4 2e 61 3d 9a 72 9f bc 34 24 9a 3d 47 58 f5 bd
       0.05497636 -0.019463826 0.075264364 -0.11979728
0001e0 46 61 3f bc 08 75 ce 3c 48 5e 49 bc d2 d9 17 bb
       -0.011680907 0.02520229 -0.012290545 -0.0023170603
0001f0 71 3f 73 3d 8a 81 da 3c 5d 7a 1e 3d c2 88 c7 38
       0.059386674 0.026673097 0.038690913 9.5145326e-05
000200 3f f3 6d bd 7d b3 2b bd db d8 f8 bb 4c 16 f0 bc
       -0.058093306 -0.04191922 -0.0075942106 -0.029307507
000210 64 2f b6 3c b9 dc 14 3d a4 a4 ee 3d 2a c3 0a bc
       0.022239394 0.03634331 0.116524965 -0.008469382
000220 1a 80 01 bd 90 29 56 bb fa a3 2d 3e 3e 0c 0e bd
       -0.031616308 -0.0032678582 0.16957083 -0.034679644
000230 96 a3 61 bd 00 f2 61 3c 54 e0 f5 bd fe ab 19 3e
       -0.05508765 0.013790607 -0.12005678 0.15007016
000240 f0 32 0b 3e be 95 24 bd db 7b 8a bc 7b 1a 77 bd
       0.1359365 -0.040181868 -0.016904762 -0.060327988
000250 ac ce bb 3d a9 4b 13 3e 0a 00 34 3b 44 05 4e bd
       0.09170279 0.14384331 0.0027465844 -0.05029799
000260 26 48 70 3d da 15 34 3a 02 02 13 bc ca 5d 57 3d
       0.058662556 0.0006869711 -0.008972647 0.05257968
000270 be 22 bf 3c 99 36 36 bc 53 24 0c 3d a5 9e a5 3c
       0.023331996 -0.0111214155 0.03421433 0.02021725
000280 70 c6 da 3c b9 65 99 3d 31 ba b8 bd 7b 20 2b 3d
       0.02670595 0.07490105 -0.09019888 0.041779023
000290 59 39 4d bd 12 c1 c2 bc 12 59 c8 bd c2 35 c2 3c
       -0.05010352 -0.023773704 -0.09782614 0.023707274
0002a0 76 05 20 3e f5 20 7b 3b 39 05 25 3e f0 9e d8 bc
       0.15627083 0.0038319204 0.16115274 -0.026442975
0002b0 79 b5 a0 3d 69 38 ff bc 42 34 97 bc 14 c9 05 bc
       0.07847113 -0.031154828 -0.018457536 -0.008165617
0002c0 5a bb 8f bc dc fb e6 3b 8d 78 d1 3d fd 70 80 bd
       -0.01754539 0.007049067 0.10228071 -0.06271551
0002d0 28 fc ba 3c e9 e2 b6 3d a4 20 43 3c 4f d1 0a 3d
       0.022825316 0.089299984 0.011909638 0.03389102
0002e0 a9 19 68 bc 07 48 8a 3d 8f 7d 01 3e 30 ef 3f bc
       -0.014166274 0.067520194 0.12645553 -0.011714742
0002f0 f0 65 c3 bd f0 52 f7 3b 39 8d aa 3b 6b e7 82 3d
       -0.095409274 0.0075477287 0.0052048233 0.06391796
000300 81 69 98 bc 4b fe 39 bd 89 99 af 3c a4 94 30 3d
       -0.018604996 -0.04540853 0.021435516 0.043110505
000310 96 15 00 3a 42 2e ca bb 2b 2f b5 bd 41 c5 cc bc
       0.0004886029 -0.006170065 -0.08846887 -0.024996402

linear2.weight f4 [150, 200]
000000 45 95 61 3d ef a1 38 bd 5f 1b c4 3d b6 28 80 3d
       0.055073995 -0.045076307 0.09575533 0.06257765
000010 19 c4 0e 3c 7d 1b fd bd c3 9f 10 bd 83 b3 bd 3a
       0.0087137455 -0.123587586 -0.03530861 0.0014473054
000020 a1 99 53 bd 11 c5 1b 3d fe fa be bc 75 c0 f1 bc
       -0.051660184 0.038029734 -0.023313042 -0.029510716
000030 7d 4f 85 3d a5 d8 b0 3d c6 1a 2d 3e 3e 77 6a 3d
       0.06509302 0.08635072 0.16904745 0.057242624
000040 57 35 65 bd 41 95 de bd 26 e0 bf 3c 79 0c 38 3c
       -0.055959072 -0.10868312 0.023422312 0.011233442
000050 a3 73 7f bd 1e 95 2d bc aa c5 93 3c d5 22 9d bd
       -0.06236614 -0.010594634 0.01803859 -0.07672659
000060 12 a6 05 be bf 1f ac 3c 21 d7 83 3c 44 74 34 bd
       -0.13051632 0.021011231 0.016093792 -0.044056192
000070 f9 15 80 3d 7d e3 01 3c 29 f5 1a bc 36 e7 8c bd
       0.06254191 0.007927773 -0.009457865 -0.068800375
000080 68 ec 02 be 7b e0 cc bc 4e f8 ca bc 63 14 35 3d
       -0.12785494 -0.025009384 -0.024776604 0.044208895
000090 67 8b 53 3c 30 d7 d7 bd ad 93 c6 bd 1d 78 6b 3d
       0.012911654 -0.10539091 -0.09696136 0.057487596
0000a0 c9 2e 74 bd 76 c0 bf bd c1 88 1d bc 48 3f c1 3c
       -0.05961493 -0.09362881 -0.009615124 0.023589745
0000b0 11 d1 c3 bd c1 25 00 bc 12 f0 da bd b0 ab 30 bc
       -0.095613606 -0.007821501 -0.10690321 -0.010783121
0000c0 36 08 ea 3d cc 69 69 3c b2 0d 84 3d 44 da 5a bd
       0.11427347 0.014246415 0.06447925 -0.05343081
0000d0 16 3a 70 3d ae ff 57 bd 6d ce be 3d c7 7b cf bd
       0.058649145 -0.05273407 0.09316716 -0.101310305
0000e0 a9 eb 9f 3b df b9 46 3d 9d 02 8d 3d fa 73 3a 3c
       0.004880388 0.048517104 0.06885264 0.01138019
0000f0 1a 28 b6 bd fb ac e1 bd d1 e7 ba bd 9b 0a 0a bd
       -0.088943675 -0.110193215 -0.09126247 -0.03370152
000100 6d fe c5 3d e5 ff f5 bc 65 c0 f0 3c 3b 52 04 bd
       0.096676685 -0.030029247 0.029388616 -0.032304984
000110 83 7a 9e bd 03 26 86 bd c5 77 6f 3d dd 7e 1e 3d
       -0.07738211 -0.06550219 0.05846383 0.038695205
000120 21 88 8e 3d 24 b4 1b be a7 b6 93 bd 83 b2 cf bd
       0.06959558 -0.15205437 -0.072125725 -0.1014147
000130 42 b3 09 be 28 a0 4e bc cc 60 a6 3d 84 d1 06 be
       -0.13447288 -0.012611426 0.08123931 -0.13165861
000140 d8 f7 37 bd 34 88 90 3c ec 30 ce bd 44 8d 68 3b
       -0.044914097 0.017643072 -0.10067925 0.0035484591
000150 c8 1b 64 3c de 57 6b bd 86 57 b1 bc 06 2d e5 3d
       0.013922639 -0.057456844 -0.02164818 0.11190228
000160 97 eb 11 3b 39 55 20 be ab 1b 68 3d 4f d9 b2 3c
       0.0022265667 -0.1565751 0.05666701 0.021832136
000170 98 62 78 bd fc 29 45 3d 33 42 54 bd 7d 51 04 3e
       -0.0606409 0.048135743 -0.051820945 0.1292171
000180 56 62 b1 3d 43 85 86 bd bb 21 42 3d 8a cf 68 3d
       0.08661334 -0.065683864 0.04739545 0.05683855
000190 95 70 6a 3d b3 4b 1b 3d 79 64 b3 bb 66 0d 44 3d
       0.057236273 0.03791399 -0.0054746238 0.04786434
0001a0 5e 79 7a 3d 35 7a 07 bd 6e 73 27 bd ee e9 8d 3d
       0.0611509 -0.03307553 -0.040881567 0.06929384
0001b0 8c 94 2f bd 85 fc e7 bc 22 12 e0 bd 96 10 0c 3d
       -0.042866275 -0.028318653 -0.109409586 0.034195505
0001c0 69 9c ed bd 05 b1 80 bd ce a7 72 3d 95 a6 23 bc
       -0.116020985 -0.06283764 0.059242062 -0.009988447
0001d0 3e 55 56 bd 82 c9 8a 3d f2 ba f3 3d 51 1e 61 3d
       -0.052327387 0.06776716 0.11900891 0.054960553
0001e0 f2 1c a9 3d 13 5d 0d 3d a9 fd 54 bd b7 dc cf bd
       0.08257474 0.03451259 -0.05199972 -0.1014952
0001f0 9e d2 90 bc 16 85 98 bb e8 da 22 3d 60 19 5e bc
       -0.017678555 -0.004654537 0.039759547 -0.013555855
000200 32 cd 23 3d b6 75 a1 bb a3 40 2d 3d fa 37 3f bd
       0.03999061 -0.0049273623 0.04229797 -0.046684243
000210 ef 9e 03 3d 96 28 70 3d d3 8c 63 3d bc af 26 3d
       0.032133993 0.058632456 0.055554222 0.040694937
000220 e0 80 a6 3d 35 be b5 3c e5 07 d8 3c cb 77 3a 3d
       0.0813005 0.022185424 0.026370952 0.0455244
000230 65 d2 e7 3d 55 ea 61 3d c7 e6 43 3d d6 24 b5 3c
       0.113194264 0.055155117 0.04782751 0.022112291
000240 82 11 b0 3a 5d cd 10 be ff 45 89 bd 37 a6 c6 bb
       0.0013432952 -0.1414084 -0.06702804 -0.006062295
000250 1d aa 7b bb 87 9e dc bc 97 3f aa bd fa 3d a1 bd
       -0.0038400956 -0.02693106 -0.0831291 -0.07873149
000260 86 e8 b1 bd 68 d6 96 3d e5 df f3 3d 29 bf 2b bd
       -0.086869285 0.073651135 0.11907939 -0.04193035
000270 24 57 6c 3d 52 bc 4a 3d ef bd cb 3d 6c 22 fb 3c
       0.05770029 0.049496002 0.09948336 0.030656062
000280 12 c0 f9 3d b7 40 b1 ba 94 89 f9 3c 91 45 30 3e
       0.12194838 -0.0013523315 0.03046111 0.17214037
000290 de 53 09 3d d5 51 28 bc 6f 9b b8 3d e2 84 17 bd
       0.033527248 -0.0102734165 0.090140216 -0.03699196
0002a0 6c 34 94 bd 30 f8 c5 bc db 49 75 bc 26 4e 61 bd
       -0.07236561 -0.024166197 -0.014971222 -0.05500617
0002b0 1e 10 59 bd 7d 8d f3 bc e8 0a bf 3a 7e 88 78 3c
       -0.052993886 -0.029730553 0.0014575394 0.015169261
0002c0 71 22 57 bd 07 61 d6 bd 3b d3 ae bd 40 19 65 3c
       -0.05252308 -0.10467725 -0.08536383 0.013983071
0002d0 f2 fb 85 3d 5f 1e 7b 3d 5f 6f 19 3d 23 3f 86 bd
       0.065421954 0.06130826 0.037459727 -0.06555011
0002e0 fa b7 d3 bc 02 24 ab bd 80 7e 91 bc 75 39 c9 3d
       -0.025844563 -0.08356477 -0.017760515 0.09825412
0002f0 84 60 09 bd 80 b1 80 bd 6c 25 f8 bc 9c 5f 7c bd
       -0.03353931 -0.062838554 -0.030291282 -0.061614618
000300 3a 68 ca 3c 70 e9 5c bd 6d ce da bd 66 03 03 3d
       0.024707902 -0.05393356 -0.10683904 0.031985663
000310 ba 8d e5 3c 6c 82 46 3d 6d 94 14 ba ae 86 03 3e
       0.028021682 0.048464224 -0.0005667869 0.12844345
000320 1a c5 03 3d 10 56 f1 3b c1 25 08 bc 5b 1c 63 3c
       0.032170393 0.007364996 -0.0083097825 0.013861741
000330 46 35 b5 3d bf a0 43 bc 9d 10 2d 3d b7 d0 30 3d
       0.08848052 -0.01194018 0.04225217 0.043167796
000340 cb 0a 89 3b 2d a3 23 3d 0c 04 32 3d 7d 42 34 bd
       0.004182195 0.03995054 0.04346089 -0.04400872
000350 ab 19 af 3c c4 42 58 bd 80 2d 3f bd 83 73 4e 3c
       0.021374544 -0.052798048 -0.04667425 0.012600782
000360 3d c2 85 bd 7a 50 84 3c d4 bd a7 bc b2 28 f1 bc
       -0.06531189 0.016151655 -0.02047626 -0.02943835
000370 6c e1 bd 3d ed cf 3f 3d 4d 6f d2 3c 36 95 f3 bc
       0.092715114 0.046829153 0.025687838 -0.029734235
000380 1e d6 9a bc a4 32 41 3d 8c c1 99 bd f2 ca 1f 3c
       -0.018900927 0.047167435 -0.07507619 0.009752976
000390 e2 2c 9b bd ab d6 5d 3c f9 6f c3 3d e2 6e 30 3d
       -0.0757692 0.01353995 0.095428415 0.043074496
0003a0 d7 6b b0 3d ac 51 23 3d e5 50 45 bc a2 3e 15 bd
       0.08614319 0.03987281 -0.012043213 -0.036436684
0003b0 7f 1d 87 3c 90 bc 6d bd 7a 0a ca 37 5b 17 a5 3c
       0.016493557 -0.058041155 2.4085155e-05 0.020152738
0003c0 8f 0e 9f 3d d1 bb 85 bc 44 3d 1e bd 4b 9a f6 bc
       0.07766449 -0.01632491 -0.038632646 -0.03010287
0003d0 20 be ee bd ab f4 c2 3c 09 e4 3e 3d 76 fd 28 bc
       -0.11657357 0.023798307 0.04660419 -0.010314336
0003e0 b4 38 89 3b 16 aa 07 3c 80 a3 0d 3d 9c 58 9f bd
       0.0041876677 0.008280298 0.034579754 -0.07780573
0003f0 44 95 ba bd c9 ef 87 bd 9b 4f 5f bd a6 6e 2a bc
       -0.091105014 -0.06637532 -0.054519277 -0.010402357

linear2.bias f4 [150]
000000 9a de b6 bd 48 4c 34 be f5 a8 32 3e 3c 12 b8 bc
       -0.08929177 -0.17607224 0.17447264 -0.022469632
000010 a7 4b 95 3e d1 a3 0d be d2 31 92 3c 5d d9 95 bd
       0.2915928 -0.13832022 0.017846022 -0.073168494
000020 d3 bd 7d bd 27 eb bb bd 81 38 db 3d 8e 0c 79 3d
       -0.06194861 -0.09175711 0.10704137 0.06080299
000030 2a 48 9d 3c 94 fc 0a 3e 45 1b 56 3d 3c 1d a3 3c
       0.01919945 0.13572913 0.0522721 0.019911401
000040 c8 9a 59 bd de 3b 74 bd a6 09 de 3d 98 7f a5 3d
       -0.053126127 -0.059627406 0.10841684 0.08080977
000050 15 d1 ee bc 5e 22 2e bd 9a 90 94 3c 68 bb c7 3a
       -0.029152432 -0.042513244 0.018135358 0.0015238347
000060 43 e9 82 3e f5 48 db 3d 56 f5 79 bd da 7d 04 3e
       0.2556859 0.10707275 -0.061024986 0.12938634
000070 87 67 bc bc 3a 62 95 3d 5e 7d 66 bd 4b 38 e8 3d
       -0.022998584 0.07294126 -0.056271903 0.11338862
000080 9c fe 18 3d 4d 12 02 be bc 03 21 bc c7 3a 2f bd
       0.03735219 -0.12702294 -0.0098275505 -0.042780664
000090 7e 49 2a 3d 08 59 b3 bc b4 02 82 3e 30 14 e3 3c
       0.041573994 -0.02189304 0.25392687 0.027719587
0000a0 1f 06 26 3e 77 5d 0c 3e 8f 19 e2 3d 9f 8a bc 3d
       0.16213273 0.13707529 0.11040031 0.092061274
0000b0 4a 5c ae bd fa a6 84 3d 14 c5 cc 3d 2b d1 b0 3d
       -0.085136965 0.06477161 0.09998527 0.086336456
0000c0 33 fc 97 bd e7 a7 c3 bd 00 6f 26 be 92 f5 81 bd
       -0.0742115 -0.09553509 -0.1625328 -0.06345667
0000d0 ec 30 2c 3d 77 e0 ed bd 82 09 4f 3e 3b 40 3a 3d
       0.042038843 -0.11615079 0.2021847 0.04547141
0000e0 bc 41 c8 bd 04 b2 68 bc 68 19 da 3d 58 50 1c be
       -0.09778163 -0.0142025985 0.10649377 -0.15265024
0000f0 16 e8 d2 3c f0 01 75 3b 84 c8 84 3e f8 16 7d 3c
       0.025745433 0.0037385188 0.2593423 0.015447371
000100 6e 38 a3 3d 17 c4 17 3c a8 f5 3a 3d 25 94 d2 bd
       0.079697475 0.00926306 0.045644432 -0.102821626
000110 83 6d 30 3d ff a6 12 be a9 aa 62 3d 6e d0 74 bd
       0.04307319 -0.14321516 0.055338535 -0.059769087
000120 f9 5c c8 3c af 1f 36 bd 88 8b 99 3e ab 59 d4 3b
       0.024458395 -0.04446381 0.29989266 0.006480416
000130 50 df 23 3d b2 5e af bc 1b aa 87 3d a4 1f 28 be
       0.04000789 -0.021407459 0.06624242 -0.1641832
000140 d1 a6 4a bc a8 e6 88 3b 82 ff 4e 3d 10 69 72 bd
       -0.012368874 0.004177887 0.05053664 -0.059182227
000150 64 5d e8 bc 1f 3a e8 3b 68 5f fb 3a 53 ab 43 bb
       -0.028364845 0.0070870067 0.0019178214 -0.0029856756
000160 80 8f 9c 3d 40 d3 d4 3d df 51 6b 3d bf e7 6b bd
       0.07644558 0.10391855 0.057451125 -0.057594057
000170 80 20 b1 3d 2c b1 d7 3c 5f b1 13 bd c7 d3 a8 3d
       0.08648777 0.0263296 -0.036057826 0.08243518
000180 0a 14 0c bd 1c 4f c3 bb a6 2c b2 bb 3e a1 87 bd
       -0.0341988 -0.0059603583 -0.0054374514 -0.066225514
000190 13 6d b8 bd 83 4a 49 3d 8a 49 15 3e 14 10 c2 3e
       -0.09005179 0.049143326 0.14578834 0.37902892
0001a0 70 6d 1e 3d ae b4 85 bd 74 27 4a 3a 66 c2 ff bd
       0.038678586 -0.065286025 0.00077115675 -0.124882504
0001b0 20 85 00 be e1 0a 39 bd df 5b bc 3d 0e 41 b2 3e
       -0.12550783 -0.04517639 0.091972105 0.34815258
0001c0 6c 9e 96 3b ee ca 39 bd 36 45 f8 bc 5a 9d eb 3d
       0.004596522 -0.045359544 -0.03030644 0.11504622
0001d0 e1 fa 08 3d ea 1b 2c 3d af 52 07 bd f6 78 34 bc
       0.03344238 0.04201881 -0.033037838 -0.011015167
0001e0 4e dd 55 3d 5f e1 b2 3d c5 73 c2 bc b9 7e 88 bd
       0.052213006 0.087343924 -0.023736844 -0.066647954
0001f0 c2 96 bb 3a b3 97 ac bd 8f c4 3e 3c dd 8d 75 bd
       0.0014311897 -0.08427372 0.011643543 -0.059949744
000200 78 73 b7 3d f4 5b 01 bd e6 80 54 3c 29 ae 16 bc
       0.08957571 -0.031581834 0.012970185 -0.009196796
000210 af 2d 86 bd 05 f3 d0 bc 32 c4 87 bd bc 94 4c bc
       -0.06551682 -0.025506506 -0.06629218 -0.012486633
000220 1c 5b b1 3d 41 eb 21 be d7 19 a3 bd 84 77 b3 3d
       0.08659956 -0.15812398 -0.07963913 0.0876303
000230 cb 8f c6 bb 02 21 33 ba 47 c0 2d 3d bf 7b 93 3c
       -0.006059622 -0.00068332267 0.042419698 0.018003343
000240 63 dd 3a 3e a8 41 a5 bd 0d ff 66 3e fa fc 1d 3e
       0.18248515 -0.080691636 0.22558232 0.15428534
000250 61 c4 f5 bb ce 1f e7 bc
       -0.007500217 -0.028213408

linear3.weight f4 [10, 150]
000000 59 7d b6 3e 7e 41 12 ba db 40 12 be d6 d8 fc 3b
       0.35642508 -0.0005579217 -0.14282553 0.0077162785
000010 0f b6 75 be 44 28 e2 3d e9 6b 80 bd 84 97 3e 3e
       -0.23995231 0.11042836 -0.06270582 0.18612486
000020 b1 25 0e 3e 9f 22 66 be 47 18 5a be e5 fb 4f 3e
       0.13881566 -0.22474144 -0.21298324 0.20310934
000030 b4 df b8 be 44 bd 1d 3e 5f 55 a2 3e 72 23 81 3d
       -0.36108172 0.1540423 0.31705758 0.06305589
000040 44 00 3a 3e 46 b4 0c 3e 0c 4d a0 be 2a eb 66 3c
       0.18164164 0.13740644 -0.31308782 0.014094153
000050 5e 85 80 be b9 b3 2d 3e 78 03 08 be e2 50 54 3d
       -0.2510175 0.1696309 -0.13282573 0.05183495
000060 7c 78 57 3d 93 46 a7 bd 25 51 75 bd 28 32 86 3d
       0.052605137 -0.08167758 -0.05989184 0.06552535
000070 7f 22 17 3e b2 b6 1f 3e 3f bf 49 be 13 ba d9 bd
       0.14759253 0.15597036 -0.19701861 -0.10631194
000080 c7 2f 81 bc fd 66 e1 bc e4 10 c3 3b 80 87 fe 3d
       -0.015769852 -0.027514929 0.0059529413 0.12428188
000090 b4 73 c4 3c 98 e0 a1 3e 16 82 fc bd 7f f0 d2 bd
       0.023980953 0.31616664 -0.123294994 -0.10299777
0000a0 e5 25 3e bd d6 f8 b2 3d de 94 55 bd 88 4f 27 be
       -0.046422858 0.08738868 -0.052143924 -0.16338933
0000b0 8e e4 30 be 02 e0 a9 bd 4e e1 a0 3d 47 39 08 be
       -0.17274687 -0.08294679 0.078554735 -0.133031
0000c0 33 ef 7e 3e 10 13 bf bb 34 e9 ba 3d 7a 15 97 bd
       0.24895935 -0.00583113 0.09126511 -0.07377143
0000d0 51 56 63 3e 6e 85 46 be 8e 39 9d b9 0f 29 86 bd
       0.22200896 -0.19386837 -0.00029988255 -0.065508
0000e0 39 a3 29 be 0a af 40 3d fb ab dc bd b4 22 53 3e
       -0.16566171 0.04704193 -0.1077499 0.20618707
0000f0 c5 f7 3c 3d 99 bd 4f bd 2b 5f 38 bd ab fa ba 3d
       0.04613473 -0.050717924 -0.045012634 0.09129842
000100 86 24 73 3e 5b 07 bd bd f2 af 7d be ed bd b8 bc
       0.23744401 -0.092299186 -0.24774149 -0.022551501
000110 d8 a9 09 bd b9 03 ef bd 6d 6b 4a be 2d 6b b5 3d
       -0.03360924 -0.11670632 -0.19767542 0.08858333
000120 cb 9b 30 3e e7 a5 95 bd 54 f9 56 3e 66 32 45 3e
       0.1724693 -0.07307034 0.20993549 0.19257507
000130 5b fe 08 3e 11 97 18 3e 7a e7 8d 3e ed fa 7a 3e
       0.13378279 0.14901377 0.27715665 0.24509783
000140 c8 f6 85 bd 5f 3d 17 be db b2 e4 3d 20 e8 52 3d
       -0.065412104 -0.14769505 0.111669265 0.051490903
000150 72 f0 95 3e 24 c9 23 bd f7 58 16 3e 12 9f 9c be
       0.29285008 -0.039986745 0.14682375 -0.3059011
000160 8f bf 15 3d e8 eb a3 3d f5 18 1f bd 96 99 26 be
       0.036559638 0.0800398 -0.03884216 -0.16269526
000170 7e 6a 22 3e 62 2d c8 3c 57 64 34 3d 17 4e 06 be
       0.15860936 0.024435703 0.044041004 -0.13115726
000180 d1 0d d5 3d d7 04 3e 3e ca 83 f4 bd 81 61 42 bd
       0.10403026 0.18556534 -0.11939199 -0.04745627
000190 7e 03 48 3e f7 f7 8b 3e e5 8c 24 be 0e b4 b2 bd
       0.19532582 0.2733762 -0.16069372 -0.08725749
0001a0 5f 3a 1f 3e 64 cd af 3d 92 17 91 bd 32 ac cc 3d
       0.1554961 0.08584097 -0.07084574 0.09993781
0001b0 0d 35 53 3e 30 b1 d2 be 36 d9 95 be 08 45 8f bd
       0.20625706 -0.41150808 -0.2926728 -0.069955885
0001c0 03 54 b4 bd 6b 43 48 3e 5a a1 14 3d d8 37 4b be
       -0.088050865 0.19556968 0.03628669 -0.19845521
0001d0 29 45 55 be bb 1f 9e 3d b0 8b ab bd 63 d5 8a bd
       -0.20827164 0.07720896 -0.08376253 -0.067789815
0001e0 da 31 fb 3b bd fe b2 3d c4 7f 84 3e 74 e5 df bd
       0.007665855 0.08739994 0.25878727 -0.109324366
0001f0 5a c9 46 3e 71 7c 41 3e 4f a1 b8 3d 9d f3 13 be
       0.19412747 0.18895127 0.09015142 -0.144484
000200 45 36 33 3e 28 58 08 bd 5d 53 33 3e 15 dd 3f 3e
       0.17501171 -0.033287197 0.1751227 0.1873668
000210 ef e3 f6 bc 3a e7 9e be fb e2 92 3d 2c ba 98 bd
       -0.030137984 -0.31035787 0.07172199 -0.074573845
000220 e0 7f b6 3d 0e 56 a5 bd 0e 45 27 3e d1 97 55 3d
       0.08911109 -0.08073054 0.16334936 0.052146737
000230 7b 2f 12 bd 63 6e cd 3d b9 b5 05 be 5c 64 aa 3d
       -0.035689812 0.1003082 -0.13057603 0.08319923
000240 7a d4 75 be b3 29 b4 3d 4b 96 b3 3d 4d 0a 7f 3c
       -0.24006835 0.08797016 0.087689005 0.015566421
000250 41 ab d0 bd 3e 03 20 3e 75 15 68 3e 1b 01 59 bd
       -0.10188914 0.15626237 0.22664435 -0.05297957
000260 38 e3 8f 3d 68 7e 9d be 86 25 4a bd 0f dc ba 3d
       0.070257604 -0.30760503 -0.04935219 0.09124004
000270 ca 08 d7 bd d4 60 9b b9 90 14 b4 be 97 ba ba 3d
       -0.10499723 -0.00029636046 -0.35171938 0.091176204
000280 78 c5 c3 be d4 12 0f bd 1b 07 83 bd 8e 92 b6 bc
       -0.38236594 -0.034930065 -0.0639784 -0.02228668
000290 1e d5 8e 3d e2 1b 04 3e cb 33 c8 bb be 82 a8 be
       0.06974243 0.12901261 -0.00610969 -0.32912248
0002a0 1b b6 7d be 47 0a 81 bd 3b 0b 8b 3e e1 da 93 bd
       -0.24776499 -0.063007884 0.27157006 -0.07219482
0002b0 cb f3 f7 bd 50 39 ed bc 01 a9 74 be 16 d3 9a bd
       -0.12107047 -0.028957993 -0.23892595 -0.07559793
0002c0 e0 1c ea 3d c6 15 17 be 82 ea be 3d 6b 09 9d bd
       0.11431289 -0.147544 0.093220726 -0.07667812
0002d0 75 0b c4 3e 4f d7 bf 3b 84 55 26 3d e4 a1 1a bd
       0.3828999 0.005854524 0.040608898 -0.037752047
0002e0 c3 29 a1 be 27 1c 8f bd 43 a3 d4 3d bc fd da 3b
       -0.31477174 -0.069877915 0.10382702 0.0066830795
0002f0 a3 ef 73 be 5e 08 99 bc b2 df ca bd ab 55 ab be
       -0.23821883 -0.018680748 -0.09905948 -0.33463797
000300 c5 bd 83 bc 53 dd cb 3d 87 d4 19 bd 6c 12 b5 3d
       -0.0160817 0.099543236 -0.037556197 0.08841404
000310 c1 7b 7c be c5 07 b8 ba 96 ec 2f 3e 81 ce 0e be
       -0.24656583 -0.0014040401 0.17180094 -0.13945962
000320 54 46 17 be 56 3b 23 bd c6 ff b2 bd ff 37 26 3e
       -0.14772922 -0.03985151 -0.08740191 0.16232298
000330 52 3e 6b be c7 c1 39 3e a6 76 ad bc 5e a5 9c bd
       -0.22972992 0.18140326 -0.02117474 -0.07648729
000340 7e d7 ca 3d 44 56 02 be 17 cc fb 3d 50 10 14 3e
       0.09904383 -0.1272822 0.122947864 0.14459348
000350 b3 76 71 be 04 c2 1f bd 10 70 40 be 81 18 24 3e
       -0.23580436 -0.039003387 -0.18792748 0.16024972
000360 fc b2 d9 3d 7c c8 65 3b b3 ca 1c be 3a 3d 9a 3e
       0.10629842 0.0035062125 -0.15311699 0.30124837
000370 16 a0 17 be d6 d7 55 3e 69 e0 74 3e 66 b9 c7 3d
       -0.14807162 0.20883116 0.2391373 0.09752159
000380 1a 3b e1 be fa af 58 3e 85 ce 68 be a3 ab 57 be
       -0.43990403 0.2116088 -0.22735031 -0.21061568
000390 23 9d 5c bd 0e bd 23 3e 36 bd a4 3d 08 db 92 3d
       -0.053860795 0.15990087 0.080439016 0.07170683
0003a0 68 dd 2e be 53 0e 72 bd 3e 98 a3 3d 3b 4e 14 3e
       -0.17076647 -0.059095692 0.07988022 0.14482968
0003b0 6b 37 f0 bd 16 6f e8 bb a5 e2 cc 3d 40 c4 1b be
       -0.1172932 -0.0070933206 0.100041665 -0.15211582
0003c0 13 08 ba 3d 3b a0 83 3e e7 c6 e0 3d 27 fb e1 3d
       0.09083571 0.25708184 0.109754376 0.11034232
0003d0 46 bb 0d 3e 46 72 6e 3d f3 1e 12 bd f2 7d 84 bd
       0.1384097 0.05821445 -0.035674047 -0.06469335
0003e0 57 7d 3e 3e 61 84 f5 bd e4 5b 5f 3e ef a4 02 be
       0.18602501 -0.1198814 0.21812397 -0.1275823
0003f0 95 b1 99 3d d7 83 2b be 8a 19 01 be 63 33 82 3e
       0.07504574 -0.16749512 -0.12607399 0.2542983

linear3.bias f4 [10]
000000 fe 6d e7 be 1c 3f 96 bd a8 ca 7b 3e b6 d6 9a 3d
       -0.45201105 -0.07336256 0.24589026 0.07560484
000010 23 82 25 3f 17 d6 ca be 8c 19 01 3f 2e cd 88 be
       0.646517 -0.39616463 0.50429606 -0.2671904
000020 be bd 9f 3d d2 42 68 be
       0.07799862 -0.2268174
